data/h2co_B3LYP_cc-pVDZ_4001.npz (npz, 785967 bytes, 5 tensors)

Q f8 [4001]
0	0x0000000000000000	0.0
1	0x0000000000000000	0.0
2	0x0000000000000000	0.0
3	0x0000000000000000	0.0
4	0x0000000000000000	0.0
5	0x0000000000000000	0.0
6	0x0000000000000000	0.0
7	0x0000000000000000	0.0
8	0x0000000000000000	0.0
9	0x0000000000000000	0.0
10	0x0000000000000000	0.0
11	0x0000000000000000	0.0
12	0x0000000000000000	0.0
13	0x0000000000000000	0.0
14	0x0000000000000000	0.0
15	0x0000000000000000	0.0
16	0x0000000000000000	0.0
17	0x0000000000000000	0.0
18	0x0000000000000000	0.0
19	0x0000000000000000	0.0
20	0x0000000000000000	0.0
21	0x0000000000000000	0.0
22	0x0000000000000000	0.0
23	0x0000000000000000	0.0
24	0x0000000000000000	0.0
25	0x0000000000000000	0.0
26	0x0000000000000000	0.0
27	0x0000000000000000	0.0
28	0x0000000000000000	0.0
29	0x0000000000000000	0.0
30	0x0000000000000000	0.0
31	0x0000000000000000	0.0
32	0x0000000000000000	0.0
33	0x0000000000000000	0.0
34	0x0000000000000000	0.0
35	0x0000000000000000	0.0
36	0x0000000000000000	0.0
37	0x0000000000000000	0.0
38	0x0000000000000000	0.0
39	0x0000000000000000	0.0
40	0x0000000000000000	0.0
41	0x0000000000000000	0.0
42	0x0000000000000000	0.0
43	0x0000000000000000	0.0
44	0x0000000000000000	0.0
45	0x0000000000000000	0.0
46	0x0000000000000000	0.0
47	0x0000000000000000	0.0
48	0x0000000000000000	0.0
49	0x0000000000000000	0.0
50	0x0000000000000000	0.0
51	0x0000000000000000	0.0
52	0x0000000000000000	0.0
53	0x0000000000000000	0.0
54	0x0000000000000000	0.0
55	0x0000000000000000	0.0
56	0x0000000000000000	0.0
57	0x0000000000000000	0.0
58	0x0000000000000000	0.0
59	0x0000000000000000	0.0
60	0x0000000000000000	0.0
61	0x0000000000000000	0.0
62	0x0000000000000000	0.0
63	0x0000000000000000	0.0
64	0x0000000000000000	0.0
65	0x0000000000000000	0.0
66	0x0000000000000000	0.0
67	0x0000000000000000	0.0
68	0x0000000000000000	0.0
69	0x0000000000000000	0.0
70	0x0000000000000000	0.0
71	0x0000000000000000	0.0
72	0x0000000000000000	0.0
73	0x0000000000000000	0.0
74	0x0000000000000000	0.0
75	0x0000000000000000	0.0
76	0x0000000000000000	0.0
77	0x0000000000000000	0.0
78	0x0000000000000000	0.0
79	0x0000000000000000	0.0
80	0x0000000000000000	0.0
81	0x0000000000000000	0.0
82	0x0000000000000000	0.0
83	0x0000000000000000	0.0
84	0x0000000000000000	0.0
85	0x0000000000000000	0.0
86	0x0000000000000000	0.0
87	0x0000000000000000	0.0
88	0x0000000000000000	0.0
89	0x0000000000000000	0.0
90	0x0000000000000000	0.0
91	0x0000000000000000	0.0
92	0x0000000000000000	0.0
93	0x0000000000000000	0.0
94	0x0000000000000000	0.0
95	0x0000000000000000	0.0
96	0x0000000000000000	0.0
97	0x0000000000000000	0.0
98	0x0000000000000000	0.0
99	0x0000000000000000	0.0
100	0x0000000000000000	0.0
101	0x0000000000000000	0.0
102	0x0000000000000000	0.0
103	0x0000000000000000	0.0
104	0x0000000000000000	0.0
105	0x0000000000000000	0.0
106	0x0000000000000000	0.0
107	0x0000000000000000	0.0
108	0x0000000000000000	0.0
109	0x0000000000000000	0.0
110	0x0000000000000000	0.0
111	0x0000000000000000	0.0
112	0x0000000000000000	0.0
113	0x0000000000000000	0.0
114	0x0000000000000000	0.0
115	0x0000000000000000	0.0
116	0x0000000000000000	0.0
117	0x0000000000000000	0.0
118	0x0000000000000000	0.0
119	0x0000000000000000	0.0
120	0x0000000000000000	0.0
121	0x0000000000000000	0.0
122	0x0000000000000000	0.0
123	0x0000000000000000	0.0
124	0x0000000000000000	0.0
125	0x0000000000000000	0.0
126	0x0000000000000000	0.0
127	0x0000000000000000	0.0
128	0x0000000000000000	0.0
129	0x0000000000000000	0.0
130	0x0000000000000000	0.0
131	0x0000000000000000	0.0
132	0x0000000000000000	0.0
133	0x0000000000000000	0.0
134	0x0000000000000000	0.0
135	0x0000000000000000	0.0
136	0x0000000000000000	0.0
137	0x0000000000000000	0.0
138	0x0000000000000000	0.0
139	0x0000000000000000	0.0
140	0x0000000000000000	0.0
141	0x0000000000000000	0.0
142	0x0000000000000000	0.0
143	0x0000000000000000	0.0
144	0x0000000000000000	0.0
145	0x0000000000000000	0.0
146	0x0000000000000000	0.0
147	0x0000000000000000	0.0
148	0x0000000000000000	0.0
149	0x0000000000000000	0.0
150	0x0000000000000000	0.0
151	0x0000000000000000	0.0
152	0x0000000000000000	0.0
153	0x0000000000000000	0.0
154	0x0000000000000000	0.0
155	0x0000000000000000	0.0
156	0x0000000000000000	0.0
157	0x0000000000000000	0.0
158	0x0000000000000000	0.0
159	0x0000000000000000	0.0
160	0x0000000000000000	0.0
161	0x0000000000000000	0.0
162	0x0000000000000000	0.0
163	0x0000000000000000	0.0
164	0x0000000000000000	0.0
165	0x0000000000000000	0.0
166	0x0000000000000000	0.0
167	0x0000000000000000	0.0
168	0x0000000000000000	0.0
169	0x0000000000000000	0.0
170	0x0000000000000000	0.0
171	0x0000000000000000	0.0
172	0x0000000000000000	0.0
173	0x0000000000000000	0.0
174	0x0000000000000000	0.0
175	0x0000000000000000	0.0
176	0x0000000000000000	0.0
177	0x0000000000000000	0.0
178	0x0000000000000000	0.0
179	0x0000000000000000	0.0
180	0x0000000000000000	0.0
181	0x0000000000000000	0.0
182	0x0000000000000000	0.0
183	0x0000000000000000	0.0
184	0x0000000000000000	0.0
185	0x0000000000000000	0.0
186	0x0000000000000000	0.0
187	0x0000000000000000	0.0
188	0x0000000000000000	0.0
189	0x0000000000000000	0.0
190	0x0000000000000000	0.0
191	0x0000000000000000	0.0
192	0x0000000000000000	0.0
193	0x0000000000000000	0.0
194	0x0000000000000000	0.0
195	0x0000000000000000	0.0
196	0x0000000000000000	0.0
197	0x0000000000000000	0.0
198	0x0000000000000000	0.0
199	0x0000000000000000	0.0
200	0x0000000000000000	0.0
201	0x0000000000000000	0.0
202	0x0000000000000000	0.0
203	0x0000000000000000	0.0
204	0x0000000000000000	0.0
205	0x0000000000000000	0.0
206	0x0000000000000000	0.0
207	0x0000000000000000	0.0
208	0x0000000000000000	0.0
209	0x0000000000000000	0.0
210	0x0000000000000000	0.0
211	0x0000000000000000	0.0
212	0x0000000000000000	0.0
213	0x0000000000000000	0.0
214	0x0000000000000000	0.0
215	0x0000000000000000	0.0
216	0x0000000000000000	0.0
217	0x0000000000000000	0.0
218	0x0000000000000000	0.0
219	0x0000000000000000	0.0
220	0x0000000000000000	0.0
221	0x0000000000000000	0.0
222	0x0000000000000000	0.0
223	0x0000000000000000	0.0
224	0x0000000000000000	0.0
225	0x0000000000000000	0.0
226	0x0000000000000000	0.0
227	0x0000000000000000	0.0
228	0x0000000000000000	0.0
229	0x0000000000000000	0.0
230	0x0000000000000000	0.0
231	0x0000000000000000	0.0
232	0x0000000000000000	0.0
233	0x0000000000000000	0.0
234	0x0000000000000000	0.0
235	0x0000000000000000	0.0
236	0x0000000000000000	0.0
237	0x0000000000000000	0.0
238	0x0000000000000000	0.0
239	0x0000000000000000	0.0
240	0x0000000000000000	0.0
241	0x0000000000000000	0.0
242	0x0000000000000000	0.0
243	0x0000000000000000	0.0
244	0x0000000000000000	0.0
245	0x0000000000000000	0.0
246	0x0000000000000000	0.0
247	0x0000000000000000	0.0
248	0x0000000000000000	0.0
249	0x0000000000000000	0.0
250	0x0000000000000000	0.0
251	0x0000000000000000	0.0
252	0x0000000000000000	0.0
253	0x0000000000000000	0.0
254	0x0000000000000000	0.0
255	0x0000000000000000	0.0

E f8 [4001]
0	0xc02f83380629e7e1	-15.756286804786159
1	0xc02fb6c859100342	-15.85699728317707
2	0xc02fb07a6efc352f	-15.844684093749121
3	0xc02fb9b1ce2f2b85	-15.862684672601754
4	0xc02ec96b71d8ce9e	-15.393397863116942
5	0xc02fb6538c2a846e	-15.856106167020894
6	0xc02fb29962e1d637	-15.848826494281736
7	0xc02fa7bcfee6ab91	-15.827613797815305
8	0xc02f2f027325534c	-15.591815565401383
9	0xc02fb9d85e29c9d4	-15.862978880501863
10	0xc02f4ee63576e130	-15.654100104104685
11	0xc02fb6f456451a4a	-15.857332893309962
12	0xc02facde1ba748c8	-15.837632049723098
13	0xc02f922c51888fc8	-15.785494373245356
14	0xc02f8d00c3adcafa	-15.77539645668502
15	0xc02fb68f26ab1c3f	-15.856560905826084
16	0xc02f059778d61bf9	-15.510921264778505
17	0xc02f7367ee6acf10	-15.725402308023632
18	0xc02f623ef0041ce1	-15.691886425497104
19	0xc02f583d2912047b	-15.672341617059137
20	0xc02f003b15b37fad	-15.500450781022517
21	0xc02fac8dc8fd9838	-15.837019234615681
22	0xc02e80020f199996	-15.250015708804124
23	0xc02f0acab88a1abe	-15.521077887400107
24	0xc02f8a35c6e510fc	-15.769941535436821
25	0xc02ecb20a14415a0	-15.39673332172498
26	0xc02eb3b6383021fc	-15.350999599338131
27	0xc02f45833c5dc32c	-15.635766874738316
28	0xc02f80982b172626	-15.751160952163513
29	0xc02e3ae3a8473bd9	-15.115018137641458
30	0xc02f849a979df653	-15.758991945297714
31	0xc02e6fc4ef59ab59	-15.21829936952206
32	0xc02fa3f45b5168ca	-15.820223668754256
33	0xc02f30ad5ea9b7ce	-15.595072706429985
34	0xc02f60f0d7264273	-15.689337466640813
35	0xc02f973101a35320	-15.795295764147852
36	0xc02fb78f45b30762	-15.858514955619913
37	0xc02fb75aff38d4b0	-15.858116126715998
38	0xc02fb21e2490c4a7	-15.847886221572777
39	0xc02ea1604f265aa4	-15.31518790572347
40	0xc02fb15ea3227105	-15.846425149874003
41	0xc02fb952d231ace2	-15.861959999622233
42	0xc02efaba8052dd2b	-15.48970414172671
43	0xc02f312b0df0657f	-15.596031604380867
44	0xc02fb848e6be2696	-15.859931193076857
45	0xc02edcf297f297e0	-15.431538341868816
46	0xc02fadb6e99beecb	-15.83928613689877
47	0xc02fb5722ef5ec41	-15.854386775512582
48	0xc02f35652ed64f9a	-15.604287589703564
49	0xc02fb0524162d6a0	-15.84437755900882
50	0xc02faa56aa9d018c	-15.832692462602402
51	0xc02f4bedb3257708	-15.64829788048111
52	0xc02f4a9a011085c6	-15.645706208483613
53	0xc02fb989a6891d09	-15.8623783151984
54	0xc02fa54af2ddb33e	-15.822837438166626
55	0xc02f911157340436	-15.78333542356459
56	0xc02f527d88f239f8	-15.66111400563112
57	0xc02fb8b14026c22c	-15.860727314692745
58	0xc02f3dcbffefd826	-15.620697019603607
59	0xc02f6a2dc6900f30	-15.707380490384452
60	0xc02fb9b75eac99af	-15.862727125710846
61	0xc02f267916a4a27f	-15.575142581555381
62	0xc02f4f366d0925a5	-15.654712111822684
63	0xc02fb7fe61c6eb6c	-15.8593626551935
64	0xc02fb53ed709cb73	-15.853995056100507
65	0xc02faf38ee49e84e	-15.842231222650437
66	0xc02fa200fd50f6d9	-15.816413799413043
67	0xc02f964d08bf4ffe	-15.793556474069188
68	0xc02fb6c1d43ff4bd	-15.856947548682337
69	0xc02f537e13fd5b8a	-15.663071274449766
70	0xc02fb97f2338b423	-15.862298107787927
71	0xc02f6cc2a27040e0	-15.712422443583307
72	0xc02fb63f643b28c2	-15.855952388974746
73	0xc02fb6e8487c7ee4	-15.857240929791665
74	0xc02f0c6b53e34143	-15.524256345263558
75	0xc02fb9591fcebeb9	-15.862008089053562
76	0xc02fb8bc71858f77	-15.860812709382783
77	0xc02f73a2107d49a9	-15.725845828336633
78	0xc02fb6589767cfae	-15.85614464895465
79	0xc02ef0edbab4cf51	-15.470563730784905
80	0xc02f4fee34b2bf21	-15.656114241428044
81	0xc02fb6293f101539	-15.855783434594388
82	0xc02f99f4e55597ae	-15.80069653196173
83	0xc02fb076ebd3664f	-15.844657296710606
84	0xc02f4cf15a1dd71f	-15.650278869764916
85	0xc02f8f9ed9f01c93	-15.780508814392567
86	0xc02fa50cb782ebc6	-15.822362646800581
87	0xc02faf92c82acf7d	-15.842916732049838
88	0xc02e047dcfa516eb	-15.00877236261609
89	0xc02fb969408c8227	-15.862131135131746
90	0xc02f9bb31c9b5e5d	-15.804100889173407
91	0xc02facc4b506ed23	-15.837438256354806
92	0xc02f0f952121066d	-15.530434642106423
93	0xc02fb047b228c60e	-15.844296996571781
94	0xc02f87c437cced9b	-15.765168899312632
95	0xc02f0fe120d8c695	-15.531014467679862
96	0xc02fb41cc9fa974e	-15.85178214248631
97	0xc02f981f876c330f	-15.797115547140065
98	0xc02c9989d52b2769	-14.29987970496923
99	0xc02fb9ddad3258a3	-15.863019382854253
100	0xc02fb9b924a7887f	-15.862740655375317
101	0xc02f96d4d5e80085	-15.794592556543884
102	0xc02f573c59f2771d	-15.670382319305242
103	0xc02fb9a5d526659d	-15.862593327462315
104	0xc02faab4985a00e5	-15.833409081446414
105	0xc02f44c7379bf512	-15.63433240679527
106	0xc02fb43b350c7ea5	-15.852014215255005
107	0xc02d72f8015aa364	-14.724548380197753
108	0xc02fa558efb8e464	-15.82294415599808
109	0xc02fb83dffbb3a60	-15.859848014454826
110	0xc02fb9d1936d605d	-15.862927062131513
111	0xc02f60e21f79a28c	-15.689225181196228
112	0xc02eb50c56c67a3c	-15.35360976383992
113	0xc02fb4817857c1ad	-15.852550278389424
114	0xc02fb4caefbb76fb	-15.853110782274134
115	0xc02f5375760dde76	-15.66300553244876
116	0xc02f6e3d2eb520e5	-15.715310535059368
117	0xc02fb90c8a89d2bf	-15.8614238064996
118	0xc02fb889ae2b173d	-15.860425417671303
119	0xc02f1f1319a72326	-15.560692598011496
120	0xc02f9de1f8cd68a5	-15.808364653658211
121	0xc02f6a6195a3c92c	-15.707775760882747
122	0xc02f91c64f4434d7	-15.784716107440927
123	0xc02fb628be211716	-15.855779592074708
124	0xc02f43f14f7c9f1e	-15.632700427973358
125	0xc02f6a0154c21784	-15.707041405384878
126	0xc02e749d06371139	-15.227760500166015
127	0xc02fb6631e071364	-15.85622495495199
128	0xc02e0f1e21938e82	-15.029526757490434
129	0xc02fb89e3d7a3ef3	-15.860582276508898
130	0xc02f1c67ce72f301	-15.555479480296983
131	0xc02fa65cac6af76f	-15.82492579274887
132	0xc02f6f17926d63d3	-15.716976714947952
133	0xc02f73233f02d0b3	-15.72487828168264
134	0xc02fb9362b710fc2	-15.861741406966647
135	0xc02fad026008a2fa	-15.837908745817447
136	0xc02f5c5d51db4584	-15.680399473206087
137	0xc02f8737f9922677	-15.764098929491622
138	0xc02fa8c275b8fbc0	-15.829608610945684
139	0xc02faf262466a1fb	-15.842087876823816
140	0xc02eeeedf0388833	-15.466659075642474
141	0xc02fb57c9642d48e	-15.854466148050303
142	0xc02fa08587fe1878	-15.813518762366797
143	0xc02f9c15d7a1e64e	-15.804854143632067
144	0xc02fb43df1a04efa	-15.852035094088468
145	0xc02f5f669ed6ac73	-15.686329807000424
146	0xc02eb5ded6094e29	-15.35521572936621
147	0xc02fba15e6cf034f	-15.863448345918782
148	0xc02f9ac95f0fe44f	-15.80231759137146
149	0xc02f3e9851306b4f	-15.622255837593597
150	0xc02e1eadae7d3188	-15.059918835432441
151	0xc02f9a76370800e8	-15.801683158614154
152	0xc02f85f502cf5ca4	-15.7616349104049
153	0xc02fb20e91a5fef2	-15.847767402184648
154	0xc02fb8e17f232977	-15.861095402757867
155	0xc02fb5be6fcd0168	-15.854968541884503
156	0xc02f3a7c9dac77f5	-15.614231993964475
157	0xc02f694ff1188075	-15.705688032380047
158	0xc02fab0498a6952b	-15.834019441923905
159	0xc02fb8710ec570b0	-15.860237561799607
160	0xc02f96a4fe9453ae	-15.794227557760532
161	0xc02fb05d62f29902	-15.844462482561088
162	0xc02fb958b705cfff	-15.86200496622041
163	0xc02fb9163322042f	-15.861497495558153
164	0xc02f8bd3b500d5aa	-15.773099571563609
165	0xc02f7555f55370c9	-15.729171434817902
166	0xc02f8d8920bee111	-15.776436827946357
167	0xc02f61e5314b7402	-15.691201725445357
168	0xc02f8b7471604116	-15.772372763633523
169	0xc02f75eed8d29920	-15.730337882716924
170	0xc02f928103de9314	-15.786140557212583
171	0xc02f2cebe78b31b4	-15.587737308255647
172	0xc02f516a1e845159	-15.6590127502938
173	0xc02fb4a3f04b3e51	-15.852813252625454
174	0xc02fb85fac515fd3	-15.860104927953136
175	0xc02f2c5494ffd0ef	-15.586582809665257
176	0xc02f09bbfaded374	-15.5190122982983
177	0xc02fb8ad22f823f7	-15.860695927420222
178	0xc02f6af295f4c1dc	-15.708882032516094
179	0xc02f5185118bb6b2	-15.659218357376947
180	0xc02f8c67dd8c46ce	-15.77422993028031
181	0xc02fae8f01f64978	-15.84093481189187
182	0xc02fa7db8f2b1222	-15.82784697914855
183	0xc02f813652184f24	-15.75236755892508
184	0xc02fa9d93055890b	-15.831735144082378
185	0xc02fb9d515554144	-15.862953821808908
186	0xc02f7caf3f3e58c2	-15.743524528847392
187	0xc02fb6fe69b0e28a	-15.857409766046903
188	0xc02fa75afc8888f0	-15.82686604658781
189	0xc02ed7b7d2176ac3	-15.421324315413022
190	0xc02fb82ffdce0de4	-15.859741145518406
191	0xc02faf9dd3a84639	-15.843000997821138
192	0xc02fb95840fc8d31	-15.86200144846825
193	0xc02df4a0fe8a8a96	-14.977790789043222
194	0xc02f8360c3bf4d9a	-15.756597630598481
195	0xc02f673a9915d12f	-15.701618942177985
196	0xc02fa37d6882aa52	-15.81931616396938
197	0xc02f74c8254ce63d	-15.728089490544443
198	0xc02f8b4575580bfb	-15.772014300344372
199	0xc02ea12a999f4b3e	-15.31477813786989
200	0xc02f9978cec061a2	-15.799749814018302
201	0xc02fb3a9e406e2f0	-15.850905538406977
202	0xc02fb9eef9cc73e4	-15.863151365478139
203	0xc02ef88b7c38cef9	-15.485439187941198
204	0xc02e8d0c935d5911	-15.275486569542894
205	0xc02fb5b961103bd5	-15.854929955703406
206	0xc02f1d7384b8b876	-15.557521960781951
207	0xc02f01d1159322f7	-15.503548311434754
208	0xc02fb324ef1d9eec	-15.84989115940649
209	0xc02faa64414b12e7	-15.832796135343825
210	0xc02f93e8d92bd250	-15.788885866736706
211	0xc02f4ee9fb310632	-15.654128885015869
212	0xc02f71b47b6336f6	-15.722080093251389
213	0xc02fb8d79599379d	-15.861019778207089
214	0xc02fb2b44735050d	-15.849031663152823
215	0xc02f06e5ce5a68f6	-15.513472031151178
216	0xc02f4d6b1028a17a	-15.651207451782046
217	0xc02fb93fd5a42eb7	-15.861815143863494
218	0xc02ef9bc78f76df4	-15.487766056255147
219	0xc02f80e0958032f9	-15.751713439845377
220	0xc02fb0aa525dc560	-15.845049451777129
221	0xc02f8039993aa7cb	-15.750439442071999
222	0xc02f6d1d90477d07	-15.713116177298174
223	0xc02f7698159536a7	-15.731629061188256
224	0xc02fac952ecfe5a9	-15.837075674894395
225	0xc02f3e50a0b6ffc0	-15.621708891237972
226	0xc02fb5c4eccd9dd9	-15.85501804361313
227	0xc02f9de26859eb0d	-15.808367978073443
228	0xc02f8a21e1380c48	-15.769789732066911
229	0xc02fb7d435f1a7db	-15.859040914296136
230	0xc02f8508f643730d	-15.759833999379703
231	0xc02f52418367d221	-15.660656076835098
232	0xc02fb9b2214f397e	-15.862687149926156
233	0xc02f267555e7e5b9	-15.575113949353964
234	0xc02fb9eb781049ac	-15.863124610889678
235	0xc02f46a20ccd954f	-15.63795509347497
236	0xc02fb8fb23b61e25	-15.861291042309924
237	0xc02fa71fb21ad337	-15.826413694166702
238	0xc02ef5aee4d71a52	-15.479849959619205
239	0xc02fb2ce29efa25b	-15.849229155065748
240	0xc02f5ad596f9c536	-15.67741081046061
241	0xc02fb52f28c17aa0	-15.853875421159785
242	0xc02f12c95d5111a9	-15.536692539354435
243	0xc02fb4b084d47e6a	-15.85290923208159
244	0xc02f8f73d12184ba	-15.780180487958535
245	0xc02fb3ae2c34be1e	-15.850938207090675
246	0xc02f14ce80b68cf3	-15.540637991222388
247	0xc02fb21d1b010516	-15.847878307222839
248	0xc02f410e2be02776	-15.627061244118277
249	0xc02fafc3efb034e4	-15.843291750201793
250	0xc02fb672151c856a	-15.856339130145631
251	0xc02f79d06d64684e	-15.737918299204605
252	0xc02fb3703b6f5916	-15.850465638487133
253	0xc02e64e067d376af	-15.19702457863181
254	0xc02fa0a4ab4cdd67	-15.8137563258485
255	0xc02fb2603b70ec43	-15.848390443357976

D f8 [4001, 3]
0	0x3faad78108d3d829	0.052425415351465006
1	0xbfc04872645d74ff	-0.12721090222013484
2	0xbfb4693125eefea2	-0.07973010231125469
3	0x3fadde391b615024	0.05833605250578014
4	0xbfc06f20d2f0f6dc	-0.12839136409632246
5	0xbfb8e64efb4c3cce	-0.09726422915649666
6	0x3fae34ba3a65a84a	0.0589960285459062
7	0xbfbf6ce8449405e7	-0.12275554346344784
8	0xbfb993ba02f7ac1c	-0.09991037914703366
9	0x3fac71a63fd37209	0.05555457619786714
10	0xbfc05150ca78f4bf	-0.12748155485488685
11	0xbfb859a2f67c7dd0	-0.09511774556857877
12	0x3fa7ab207fc9bbd5	0.0462274700156439
13	0xbfc2e5c3a5b7cd7a	-0.14763684837053487
14	0xbfb178d97777a589	-0.06825026671108082
15	0x3fad78fba17a1bda	0.05756365152506478
16	0xbfc07495fe15943e	-0.12855791956386214
17	0xbfb862815c97fd90	-0.09525307188595478
18	0x3fabca192cef5f1e	0.05427626298449993
19	0xbfc0ab81003603ee	-0.1302338839559804
20	0xbfb7b3b90a2366ea	-0.09258610246197532
21	0x3fae162a15989d56	0.058762850891350624
22	0xbfbf04876b77c3ea	-0.12116285680509944
23	0xbfb9f28dd093daac	-0.10135732977128481
24	0x3faaa54b1582fd06	0.0520423377761237
25	0xbfc010c745e7fc78	-0.12551203645122988
26	0xbfb2fba9c93ab82f	-0.07415257609201896
27	0x3fad1ad6794280f7	0.05684538107129982
28	0xbfc03b135443c034	-0.12680284132466257
29	0xbfb8bdebef3d49c3	-0.09664797392659978
30	0x3fabb0727bc34836	0.05408056031014079
31	0xbfc03f3cab8fab69	-0.1269298398686616
32	0xbfba885e1740ee15	-0.10364330356326719
33	0x3fadc4d845f70de7	0.05814243177476524
34	0xbfbfdf61e0b404a7	-0.12450229392927047
35	0xbfb8eacfa54a71d9	-0.09733293328685678
36	0x3fab0a888f6a3150	0.052814738756839064
37	0xbfbfa72b0abae2c9	-0.123644533271441
38	0xbfb8af2f945a6d9f	-0.09642312404542118
39	0x3facdb875199c5b3	0.056362370215434686
40	0xbfbe02615933e2d1	-0.11722381999778554
41	0xbfba77dba7f22b98	-0.1033913884186134
42	0x3fae89de0ea0d918	0.059645594869311036
43	0xbfbe62d84d5b0d64	-0.11869575394216764
44	0xbfbaf9e3323a847e	-0.1053754804256801
45	0x3fabd05feb597a83	0.0543241476814176
46	0xbfc03c2ac34b12e1	-0.1268361524181705
47	0xbfb7d8d5c91c61ee	-0.0931523910516103
48	0x3fa2b7d9f793c7e1	0.03655892512496429
49	0xbfc1c44d5251d894	-0.138803162760898
50	0xbfb087c18c063042	-0.06457147282179768
51	0x3fac741af9a3ec0f	0.05557331368796536
52	0xbfc1842c97639f4f	-0.13684613601730652
53	0xbfb61b140bcddeba	-0.08635068214595779
54	0x3fabcf02a090532a	0.054313737964696365
55	0xbfc1fea18f692aa1	-0.14058322432022854
56	0xbfb998c664798a7e	-0.09998741105077077
57	0x3fb0b9d491762110	0.06533554602913605
58	0xbfc1a80ef9745d50	-0.13794123821638005
59	0xbfb88434e09a1637	-0.0957673118919836
60	0x3fa76dba5a6dd141	0.0457590327631885
61	0xbfc27bd11d0104a5	-0.14440359035692044
62	0xbfb2021c4150822a	-0.07034470171539256
63	0x3fadbfa8f694452f	0.058102874851224555
64	0xbfbf4cd7e71ce943	-0.12226628677754996
65	0xbfb9ee0d2695a5a1	-0.10128862564092468
66	0x3fae34745ea3d39f	0.05899394660256196
67	0xbfc1fc09e7b7c645	-0.14050411047314718
68	0xbfbca9515e48ea8f	-0.11195858528018675
69	0x3fb277dc2a8678f0	0.07214141882147707
70	0xbfc1c9d3f466eb22	-0.13897180017178196
71	0xbfba019007388b7a	-0.10158634353915189
72	0x3fa9fa31d9c71d69	0.0507369592992813
73	0xbfc119bfce19a24e	-0.13359830440028236
74	0xbfb64d8fdae08e89	-0.0871210011833289
75	0x3fa94173b22fb455	0.04932748365522658
76	0xbfc2758a5e96e940	-0.14421205156924977
77	0xbfb788558cc05081	-0.09192404447850501
78	0x3fad5a6b7cad10e6	0.0573304738705092
79	0xbfbe8f9915874b26	-0.11937863135908042
80	0xbfbccd10d278be3a	-0.11250405443637926
81	0x3fa341629d2e792c	0.037608224570464394
82	0xbfc14f936132bf50	-0.13524095769889266
83	0xbfb42b3f490f6ab6	-0.07878490003296687
84	0x3fb0258483731f55	0.06307247361394037
85	0xbfbdbbf9dfdb8e26	-0.11614953723215446
86	0xbfbae5d49a13f54c	-0.10506943475407587
87	0x3fac640153f7e893	0.05545047903065483
88	0xbfc02922233b6133	-0.1262552902251258
89	0xbfbc8a9e4b9af546	-0.11149014802773136
90	0x3fae3617852ecfa3	0.059006438262627435
91	0xbfc182f23a7b624c	-0.1368086610371101
92	0xbfb8237810b116f8	-0.09429121406091301
93	0x3fa714c48198ff15	0.04508031923296422
94	0xbfc34fa4b77e2124	-0.15086802444080505
95	0xbfb14fc7c6041ed0	-0.06762360176446269
96	0x3fabfaabf9b53e3e	0.054646848899775766
97	0xbfc1360f9de792bd	-0.13446231088814456
98	0xbfb6c1f2794d5df7	-0.08889689885597095
99	0x3faf37b1dfef0766	0.0609717927795959
100	0xbfbac120a4bdb949	-0.10450939199447364
101	0xbfbb74af7cf259a6	-0.10724922943550172
102	0x3fb1a53176012449	0.06892689829796085
103	0xbfc113d06261d0bf	-0.13341717532933292
104	0xbfbaa433a67baa59	-0.10406802000549344
105	0x3faf6472a81b4527	0.06131323148805228
106	0xbfbea5d68bbc7fb1	-0.11971798812419256
107	0xbfba453ceafe9173	-0.10261898743789803
108	0x3fad39ac79d16097	0.05708064066919965
109	0xbfc073f8cfa175bd	-0.12853918207376394
110	0xbfb9294d39adaf1b	-0.09828646333852158
111	0x3fabb25b7e1018e5	0.05409513391355051
112	0xbfc0837546d95ab8	-0.12901178321290785
113	0xbfb7f94ef0363d92	-0.09364789356754091
114	0x3facdb4175d7f108	0.05636028827209044
115	0xbfbfb25b3cc5f239	-0.12381525262566918
116	0xbfb966b35f0999af	-0.09922333784343239
117	0x3fafd1542b35bc2e	0.06214392688240654
118	0xbfc1612d3f88d47a	-0.13577809908170818
119	0xbfbc2d04dae703b7	-0.11006193489357839
120	0x3faeb46ff8be717e	0.05997037803101345
121	0xbfc0e2b1de184849	-0.13191817612147563
122	0xbfb8c3ecd1e5907c	-0.09673957943374661
123	0x3fac891e12f0e396	0.05573362332547231
124	0xbfc0312ef61162f1	-0.12650095953974685
125	0xbfb867f687bc9af3	-0.09533634961972463
126	0x3faf7c3056fa8b62	0.06149436055900172
127	0xbfc2129eb09f44a7	-0.1411932337200927
128	0xbfbb77afee467d03	-0.10729503218907514
129	0x3faa9230fe82d62d	0.05189660174202646
130	0xbfc166e8466f4688	-0.13595298232262487
131	0xbfb49059d515b4ab	-0.08032762005105336
132	0x3fad26d83e930e69	0.056936986578446654
133	0xbfc08ba5079046cc	-0.1292616164142174
134	0xbfb8de4228763b10	-0.09714139449918613
135	0x3fa760156e9247cb	0.045654935595976186
136	0xbfc25390fed2fbee	-0.14317524378381513
137	0xbfb042946f96189b	-0.06351592754626482
138	0x3fab10439650a35e	0.052858459567068236
139	0xbfbfef58987f1dcd	-0.12474588130054727
140	0xbfb76adcd6fa983a	-0.09147434471614782
141	0x3fadb2d59dfe39bc	0.05800502351404499
142	0xbfc00ff5b2a27e77	-0.12548705313109895
143	0xbfb971e39114a920	-0.09939405719766059
144	0x3faef404fc29016e	0.06045547083022283
145	0xbfc065c82c4242f0	-0.12810613785816072
146	0xbfbc5567e6f5f6c5	-0.11067819012347531
147	0x3fadebde073cd99a	0.05844014967299245
148	0xbfc028737dd6cd87	-0.12623447079168335
149	0xbfb99a00c161c780	-0.10000614854086898
150	0x3fae7566acd78ae6	0.05948944911849256
151	0xbfc10370e0f3f898	-0.13291750892671383
152	0xbfb91704b5f30644	-0.09800748293039258
153	0x3fa85868999440cd	0.04754950403924028
154	0xbfc2032239675fac	-0.1407206325809488
155	0xbfb4e9fe534f1a84	-0.08169545682822316
156	0x3fafba680f9bf3f8	0.06196904364148986
157	0xbfbc59a2b5325723	-0.11074273036714692
158	0xbfbc23bdab28c4f8	-0.10992036274616968
159	0x3fad0bd4429dd028	0.056730874187366276
160	0xbfc061360b5398bb	-0.12796664765409624
161	0xbfb8d86433aedead	-0.09705187093538355
162	0x3fac24f8081101fa	0.05496955011813394
163	0xbfbf8f6d5bdb9c8f	-0.12328227512954214
164	0xbfb74834d1d2173c	-0.09094553110670928
165	0x3facba3c973a6c0e	0.05610837312743665
166	0xbfbe6f42dc4e59d8	-0.11888521078649406
167	0xbfba75cfb7c47094	-0.10336015926844971
168	0x3fa936cf37a84e3c	0.04924628786480098
169	0xbfc1ce31b08435d7	-0.1391050445458137
170	0xbfb537a10c37f2ea	-0.08288008259109927
171	0x3fad8471af46fff5	0.057651093145523115
172	0xbfc048a6c92ed47f	-0.12721714805016757
173	0xbfb8ef2d6167bc8f	-0.09739955547387268
174	0x3fb11a6e737e35fa	0.06680956191686241
175	0xbfc16cb4c4462dc1	-0.1361299475068858
176	0xbfbace7fb4d76e14	-0.10471342244220977
177	0x3fac329cf3ec8b70	0.05507364728534625
178	0xbfbf3db2c2974e20	-0.12203519106633864
179	0xbfba3b6a03bca95c	-0.10246908751711231
180	0x3fad51b004727b7c	0.05726385168349332
181	0xbfc04dc4a1a1280c	-0.12737329380098605
182	0xbfb8bd1a5bf7cbc0	-0.09663548226653429
183	0x3fa75ccf217c4fc3	0.04562995227584523
184	0xbfc16a975d27fd90	-0.13606540726321414
185	0xbfb2ae071051dfc9	-0.07296795032914284
186	0x3fb010a458071223	0.0627539362822707
187	0xbfbe201feabb6fc3	-0.11767768364683122
188	0xbfbc3d1e80930735	-0.11030760420819948
189	0x3fad3dc45a2cd6a0	0.05711186981936334
190	0xbfc0476c6c46977c	-0.12717967306997113
191	0xbfb90c3d4d8ab5d5	-0.09784300940619713
192	0x3fac1824af7af686	0.05487169878095437
193	0xbfc00273b4a7df55	-0.12507482834893816
194	0xbfb83b35bf905d31	-0.09465347220281185
195	0x3fab6a50de2cc836	0.05354550087066949
196	0xbfc103198e41aec1	-0.13290709920999258
197	0xbfb7e079d24fa4ab	-0.09326897987888809
198	0x3fad606c5f55579f	0.057376276624082616
199	0xbfc00851a96f3bb9	-0.12525387547654335
200	0xbfb9c21df1aee5e1	-0.10061823988407738
201	0x3fae6c6558db20d0	0.059420744988132435
202	0xbfc04e0a7d62fcb7	-0.12738162157436303
203	0xbfb88e70917ebd4f	-0.09592345764280207
204	0x3fac54b941916319	0.05533389020337704
205	0xbfc0c01b4fe03c75	-0.13086263084594277
206	0xbfb87c280dc41478	-0.09564447723467306
207	0x3fa7fa894d1e7a95	0.046833315528819565
208	0xbfbd9dd284b14232	-0.11568942775307603
209	0xbfb5b3ed8f99d9c1	-0.08477673297770762
210	0x3fad3dc45a2cd6a0	0.05711186981936334
211	0xbfc0578611f29af9	-0.12767101169921327
212	0xbfb8a32dcf09e02c	-0.0962399130311275
213	0x3fad17902c2c88ef	0.056820397751168865
214	0xbfc02c56f960e410	-0.12635314156230537
215	0xbfbb168a54babec3	-0.10581268852797181
216	0x3fac15aff5aa7c7f	0.05485296129085614
217	0xbfbfcbdf00111ecc	-0.12420457603104323
218	0xbfb87a84e7391875	-0.09561949391454212
219	0x3fac5dba958dcd2e	0.05540259433373716
220	0xbfc0b19359cebfd2	-0.13041917691361832
221	0xbfb802dbfbb650ff	-0.09379362960163816
222	0x3fa769a27a125b37	0.0457278036130248
223	0xbfc2623be2c562e7	-0.14362286160282808
224	0xbfb650f915d770e7	-0.08717304976693506
225	0x3fad8d2d2781955f	0.05771771533253899
226	0xbfc038d2ff44a5ae	-0.12673413719430243
227	0xbfb8decddff9e467	-0.09714972227256312
228	0x3fad5c547ef9e195	0.05734504747391892
229	0xbfc0481b11ab2b29	-0.12720049250341361
230	0xbfb8dce4ddad13b8	-0.09712057506574368
231	0x3faefb63299a6f80	0.06051168330051748
232	0xbfbd812b623107ed	-0.11525221965078432
233	0xbfbb87a6a6119629	-0.10753861956035195
234	0x3facec728a8b4732	0.05649145070277796
235	0xbfbfddbeba2908a2	-0.1244773106091395
236	0xbfb92463c60cbb0f	-0.09821151337812871
237	0x3fa878102d689e6f	0.047791009467172844
238	0xbfc01c604195cae9	-0.12586596681975173
239	0xbfaeaae2ed3e5e12	-0.05989751001396483
240	0x3fb007e8dfcc7cb8	0.06262069190823893
241	0xbfbdebde073cd99a	-0.1168802993459849
242	0xbfbb82317aecf8c6	-0.10745534182658209
243	0x3fadd6daedefe212	0.05827984003548549
244	0xbfc05e5887e05fb4	-0.1278792060336379
245	0xbfb8c7e1c4601c2f	-0.09679995579072974
246	0x3fae497777f0cb27	0.05915425624006892
247	0xbfc03cb67acebc37	-0.12685280796492446
248	0xbfba2f45508b3194	-0.1022837945594744
249	0x3faef404fc29016e	0.06045547083022283
250	0xbfbfead7ee80e8c1	-0.12467717717018713
251	0xbfb992c581d143c5	-0.09989580554362394
252	0x3fac6b5f816956a4	0.05550669150094947
253	0xbfc20f23feb7ed1e	-0.14108705460953613
254	0xbfb5641bf8a25bff	-0.08355879612132354
255	0x3faae153f015c042	0.05250036531185788

R f8 [4001, 4, 3]
0	0x3fc5606e9ff0cbb0	0.167005375
1	0xbfd8f53d640e9d52	-0.38996825
2	0xbfd1f7ab324851a8	-0.2807415
3	0xbfcdfbd3804534bd	-0.234247625
4	0x3fe0270c996b7671	0.50476675
5	0x3fd888e9b38d60a6	0.3833565
6	0x3fe3fa85caafbc1b	0.624331375
7	0xbfcdedf3f961804e	-0.23382425
8	0xbff5d72e6a76965f	-1.3650345
9	0x3fcfb1ed17c5ef63	0.247617375
10	0xbff76e97d06bbdbe	-1.46450025
11	0xbf91c90c4dec1c1d	-0.0173685
12	0x3fc60020817fc760	0.171878875
13	0xbfd9949385836220	-0.399693375
14	0xbfd3722962cfd8f1	-0.303842875
15	0xbfcd1f266ba493c9	-0.227513125
16	0x3fe05583621fafc9	0.510438625
17	0x3fd888e820e62995	0.383356125
18	0x3fe475e5f30e7ff6	0.639391875
19	0xbfcd0f2ae07e5a79	-0.227025375
20	0xbff4bb4e3369b9d8	-1.295728875
21	0x3fc320d887ebf22c	0.149439875
22	0xbff7554ae429e0a4	-1.458323375
23	0x3faa9780baa582dc	0.051937125
24	0x3fc65d3458cd20b0	0.174719375
25	0xbfd908c0053e2d62	-0.3911590625
26	0xbfd37c49fd7a13c2	-0.304461
27	0xbfcd4c9d9d3458cd	-0.228900625
28	0x3fe04c013ec460ee	0.5092779375
29	0x3fd888e79aae6c8f	0.383356
30	0x3fe3fd7cf5f4e443	0.624693375
31	0xbfd01c6d612c6ac2	-0.2517350625
32	0xbff4b3b5393250b5	-1.293874
33	0x3fc43fbefd00713f	0.158195375
34	0xbff79bc99ae924f2	-1.4755340625
35	0x3fab8aa00192a737	0.053792
36	0x3fc678e6d15ad107	0.175564625
37	0xbfd957f0aa21a71a	-0.3959924375
38	0xbfd2f9641f644956	-0.296471625
39	0xbfccb50e34762952	-0.224275375
40	0x3fe0580b45ae5ffa	0.5107475625
41	0x3fd888e92d55a3a1	0.383356375
42	0x3fe3c9bfdf7e8039	0.618377625
43	0xbfcf9ae46cfc829d	-0.2469144375
44	0xbff515e33269df98	-1.317843625
45	0x3fbf58127b2cc708	0.122437625
46	0xbff768e789e774ef	-1.4631114375
47	0x3f9e89c1b54195cd	0.029822375
48	0x3fc72e38a7e73a36	0.1810980625
49	0xbfdb510667f90d9d	-0.426820375
50	0xbfd13d3d4280ae10	-0.26936275
51	0xbfcf49ced0b30b5b	-0.2444399375
52	0x3fe0a052934acaff	0.519570625
53	0x3fd888e8a71de69b	0.38335625
54	0x3fe8aac77574f723	0.7708470625
55	0xbfc00538ef34d6a1	-0.125159375
56	0xbff662ffd1dcd706	-1.39916975
57	0x3fb91c0980b24207	0.0980840625
58	0xbff78719934efcbd	-1.470483375
59	0xbfaa5eb313be22e6	-0.05150375
60	0x3fc615ffe6d58c8f	0.172546375
61	0xbfd9aefd438d1d8a	-0.4013055
62	0xbfd340346dc5d639	-0.30079375
63	0xbfcd3fde7210be94	-0.228511625
64	0x3fe058bb4d48882f	0.5108315
65	0x3fd888e8a71de69b	0.38335625
66	0x3fe4a68be2f7b17d	0.645330375
67	0xbfca43632c1f42bb	-0.2051815
68	0xbff4e0c67168f8e8	-1.30487675
69	0x3fc2e0c49ba5e354	0.147484375
70	0xbff79404ea4a8c15	-1.4736375
71	0x3fa5e878fabda0e0	0.04278925
72	0x3fc7027d88c1db01	0.1797635
73	0xbfd9b10e02214270	-0.4014315625
74	0xbfd2afaf85942917	-0.291973
75	0xbfccd68c692f6e83	-0.2252975
76	0x3fe06cd594f26aec	0.5132854375
77	0x3fd888e79aae6c8f	0.383356
78	0x3fe453c89f40a287	0.6352275
79	0xbfccc5d6bebe1651	-0.2247875625
80	0xbff54d29131ec0b5	-1.331338
81	0x3fb6ac9f2fdb8fde	0.0885715
82	0xbff7910678c0053e	-1.4729065625
83	0x3f90b84988094e5d	0.016328
84	0x3fc66be5109070fc	0.1751676875
85	0xbfd9117a89331a09	-0.3916918125
86	0xbfd3954eb13dfb0d	-0.305988
87	0xbfcd056eefa1e3eb	-0.2267283125
88	0x3fe041531550ca1d	0.5079741875
89	0x3fd888e79aae6c8f	0.383356
90	0x3fe3412e62131a8f	0.6017066875
91	0xbfcd112e40852b4e	-0.2270868125
92	0xbff4a0f1b25f633d	-1.289293
93	0x3fc49f5f91600f34	0.1611136875
94	0xbff7c8eebf65dbfd	-1.4865558125
95	0x3fade310dbf0563f	0.058373
96	0x3fc7abd2b6f19935	0.184931125
97	0xbfd928e79aae6c8f	-0.393121625
98	0xbfd135bccaf709b7	-0.268904875
99	0xbfcf9bb16c1e364c	-0.246938875
100	0x3fe01b67c286f8ad	0.503345375
101	0x3fd888e820e62995	0.383356125
102	0x3fe36e9c0229a5ec	0.607252125
103	0xbfbf0ffb8b263950	-0.121337625
104	0xbff6689fa54c5543	-1.400542875
105	0x3fd08e158750c1b9	0.258672125
106	0xbff8bf43e963dc48	-1.546695625
107	0xbfab12ad81adea89	-0.052876875
108	0x3fc66ba7b9170d63	0.175160375
109	0xbfd966933a0407cc	-0.3968856875
110	0xbfd32d8fd5cb7910	-0.299655875
111	0xbfcce7daa4fca42b	-0.225825625
112	0x3fe0540d6f544bb2	0.5102603125
113	0x3fd888e820e62995	0.383356125
114	0x3fe3def6f8f04146	0.620967375
115	0xbfcd98de6ddf00ac	-0.2312276875
116	0xbff4eec15d2d01c1	-1.308289875
117	0x3fc13d0aed99cbef	0.134675375
118	0xbff7833d188f42ff	-1.4695406875
119	0x3fa4291b823c85c2	0.039376125
120	0x3fc915d462c343b7	0.1959786875
121	0xbfd91aff2a172abf	-0.39227275
122	0xbfd34cb8e086bdf5	-0.30155775
123	0xbfcb6d0bb6ed6777	-0.2142653125
124	0x3fe0156eac860568	0.50261625
125	0x3fd888e8a71de69b	0.38335625
126	0x3fdbe9d3cbc48f11	0.4361466875
127	0xbfd06b7564302b41	-0.25655875
128	0xbff4d7631b584b1b	-1.30258475
129	0x3fba23779e9d0e99	0.1021036875
130	0xbff6925e99e94ab2	-1.41073475
131	0x3fa714e3bcd35a86	0.04508125
132	0x3fc67bb9496249a1	0.17565075
133	0xbfd914894c447c31	-0.3918784375
134	0xbfd3385f8d2e514c	-0.30031575
135	0xbfcd6f77f27fe4bd	-0.22996425
136	0x3fe03fc99ae924f2	0.5077865625
137	0x3fd888e8a71de69b	0.38335625
138	0x3fe390121682f944	0.61133675
139	0xbfcf41565c2d2780	-0.2441814375
140	0xbff4e6a619da9c99	-1.30631075
141	0x3fc6551f81a5870e	0.17447275
142	0xbff7782dadb8348f	-1.4668404375
143	0x3fa52c83ec892ab7	0.04135525
144	0x3fc6f287c200c0f0	0.1792764375
145	0xbfd9062ed352220c	-0.391002375
146	0xbfd2ca7ce0fc2eba	-0.293608875
147	0xbfcb9d9dba908a26	-0.2157475625
148	0x3fe03440f2389720	0.506378625
149	0x3fd888e820e62995	0.383356125
150	0x3fe0f24a48f96e16	0.5295764375
151	0xbfce8b2d905c0336	-0.238622375
152	0xbff5390f94c87981	-1.326430875
153	0x3fbee92c49342678	0.1207454375
154	0xbff77657d9dba909	-1.466392375
155	0x3f95bea91d9b1b7a	0.021235125
156	0x3fc5e6e86c6583e8	0.17110925
157	0xbfd87f29d40ee06e	-0.3827614375
158	0xbfd39544bb1af3a1	-0.305985625
159	0xbfcbc3675ddd2ae9	-0.21690075
160	0x3fe04503968d759f	0.5084245625
161	0x3fd888e92d55a3a1	0.383356375
162	0x3fe28601bc98a223	0.57885825
163	0xbfd324117f84449e	-0.2990764375
164	0xbff4a0fabda0dfdf	-1.289301625
165	0x3fc099c17225b74a	0.12969225
166	0xbff78c4b3c3e74b0	-1.4717514375
167	0x3fade1ef73c0c1fd	0.058364375
168	0x3fc7089331a08bfc	0.1799491875
169	0xbfd8c128bf3bea92	-0.3867895
170	0xbfd3cca2db61bb06	-0.309365
171	0xbfccf6cd6c2efd44	-0.2262818125
172	0x3fe03bb517a46174	0.5072885
173	0x3fd888e79aae6c8f	0.383356
174	0x3fe2844b4d056c51	0.5786491875
175	0xbfd080474d9c6b05	-0.2578295
176	0xbff4777292c49342	-1.279162
177	0x3fc371cb039ef0f1	0.1519101875
178	0xbff7ad056c508b33	-1.4797415
179	0x3fb1897a67a52ac7	0.068504
180	0x3fc645308bb90646	0.1739865
181	0xbfd933bc0a06e9ff	-0.393782625
182	0xbfd2c678c0053e2d	-0.29336375
183	0xbfcc8a7e73a365cb	-0.2229765
184	0x3fe046d4c33b5393	0.508646375
185	0x3fd888e8a71de69b	0.38335625
186	0x3fe31a6612839043	0.5969725
187	0xbfcf920d130df9be	-0.246644625
188	0xbff53c1333b96af0	-1.32716675
189	0x3fc24b380cb6c7a8	0.1429205
190	0xbff75b775b813016	-1.459830625
191	0x3f94fdc1615ebfa9	0.02049925
192	0x3fc514ce3de6149c	0.1646974375
193	0xbfda0d3f5b5fa227	-0.4070585625
194	0xbfd0cf0e90bc7b46	-0.26263775
195	0xbfcb96c4827b6fe3	-0.2155385625
196	0x3fe0a883558a7610	0.5205704375
197	0x3fd888e8a71de69b	0.38335625
198	0x3fe6d8ce0b912dba	0.7139654375
199	0xbfd102e8c0485a0c	-0.2658025625
200	0xbff6b5a2d72ffd1e	-1.41934475
201	0x3f96b0b39192641b	0.0221584375
202	0xbff74d741d084e83	-1.4564095625
203	0xbfb25989df1172ef	-0.07167875
204	0x3fc5c0e065300581	0.169948625
205	0xbfdac3fab10ba626	-0.418211625
206	0xbfd2dba7fc32ebe6	-0.29465675
207	0xbfcdd68f8e7ddca5	-0.233110375
208	0x3fe06a732df505d1	0.512994375
209	0x3fd888e8a71de69b	0.38335625
210	0x3fe6303d57796399	0.693388625
211	0xbfbcc095f2452c5a	-0.112313625
212	0xbff52c2fc69728a6	-1.32328775
213	0x3fc36e44b6e935b9	0.151802625
214	0xbff7b7cb4f1e4b45	-1.482371625
215	0x3f98f69ca9ef5233	0.02437825
216	0x3fc553dc8b86b160	0.16662175
217	0xbfdad36cdf266ba5	-0.419154375
218	0xbfd3debbfd71b047	-0.310469625
219	0xbfca8ce0b912dba5	-0.20742425
220	0x3fe0a96c82e019b1	0.520681625
221	0x3fd888e92d55a3a1	0.383356375
222	0x3fe5aac4b4d056c5	0.67709575
223	0xbfd225fbf83382e4	-0.283568375
224	0xbff469e14bdfd263	-1.275849625
225	0xbf91d9c27e953155	-0.01743225
226	0xbff5df0fbeb9e493	-1.366958375
227	0x3fb2628ed5f138bd	0.071816375
228	0x3fc4a7f6f4be835e	0.161375875
229	0xbfdb23b9f127f5e8	-0.4240555625
230	0xbfd4a3bcd35a8588	-0.32249375
231	0xbfce77b4a2339c0f	-0.238028125
232	0x3fe07ff88765ba6f	0.5156214375
233	0x3fd888e8a71de69b	0.38335625
234	0x3fe87b1feeb2d0a2	0.765029875
235	0xbfc461f644955b46	-0.1592395625
236	0xbff3d6202539756d	-1.23977675
237	0x3fc5e15b9a5a89b9	0.170939875
238	0xbff6be0c6b484d77	-1.4213985625
239	0x3fbb9ea140570825	0.10788925
240	0x3fc59102bc72e276	0.168487875
241	0xbfdb280cb6c7a7ca	-0.4243194375
242	0xbfd18cb3a2595bbc	-0.27421275
243	0xbfcd9b91f70de8f7	-0.231310125
244	0x3fe08458ab92c062	0.5161555625
245	0x3fd888e8a71de69b	0.38335625
246	0x3fe71bc2fc69728a	0.722138875
247	0xbfbcb6f08cc575c0	-0.1121664375
248	0xbff6276709fa54c5	-1.38461975
249	0x3fbe0ee6b8305d96	0.117414875
250	0xbff789e093532e7b	-1.4711614375
251	0xbfa2eb9a176ddacf	-0.03695375
252	0x3fc6dab191dde376	0.178549
253	0xbfd90cabc5154867	-0.391398375
254	0xbfd372c7b890d5a6	-0.303880625
255	0xbfccd58c8eef1bac	-0.225267

F f8 [4001, 4, 3]
0	0x3ffa30355cd35665	1.636769640540842
1	0xbfe108e0dce9994f	-0.5323337855050257
2	0xc0068557c002f38f	-2.8151087761784264
3	0xbfe4223653d37575	-0.6291762959696557
4	0x3fe83a6aea7e2351	0.7571310596405089
5	0x3feefcdf442c3d35	0.9683681804180312
6	0xbfe556a2ebcece94	-0.6668257337209575
7	0x3fac6d0c9fd8c3cf	0.05551948024038433
8	0x3ff354179161ac33	1.2080302885976948
9	0xbfd5cf22bcd2073c	-0.34076755942816184
10	0xbfd1f0b5af242c7f	-0.2803167543758675
11	0x3fe47050b4b79dc7	0.6387103585847677
12	0x3fb358cbdeb04c79	0.07557367502913505
13	0x3fd54ffcfdf18e23	0.33300709532906775
14	0x3fe39668a3e10375	0.6121104431878012
15	0xbf9765ca9f8cf114	-0.022849241245453802
16	0xbfc7b1dda5125d19	-0.18511553344863144
17	0xbfc9edd93c9c0014	-0.20257106265489766
18	0x3f976c880fbe527e	0.022874952278999043
19	0xbf9d56fb22a33d73	-0.028652118672480364
20	0xbfd44afbd3b3acc3	-0.31707664178857103
21	0xbfb35a7b3abca4d4	-0.0755993860626803
22	0xbfbe8679e4f8aeff	-0.11923944320795597
23	0xbfb7aba357016877	-0.09246273874433251
24	0xbfb40eb2dc34e080	-0.07834928394447793
25	0xbfebf99c657a1c33	-0.8742200834248081
26	0x3ff020a9a34901f6	1.0079742792441926
27	0xbfb258b5d7eb721f	-0.07166611215092943
28	0x3fc32e3d73e71a24	0.14984863433183293
29	0xbfb57335eaa64cb6	-0.08378922442197986
30	0x3fcb51eddd78dacb	0.21343777956072638
31	0x3fcd3564d85a3877	0.2281919533165284
32	0xbfe6caf8e00d4033	-0.7122768760691599
33	0xbfb03c73e3ac8c1a	-0.06342243488738611
34	0x3fdfc167a4d38f19	0.49617949577644677
35	0xbfcb1fcea4bfe88e	-0.21190817875305296
36	0x3f961451ee0d6b42	0.02156188979584362
37	0xbfc04eb315021ace	-0.12740171933929506
38	0xbfcee7ea8e24e1bb	-0.2414525217116202
39	0xbf97dedaf1f59423	-0.02331106282999341
40	0x3fc43ea7c8e31468	0.15816209134041803
41	0x3fb73a6a90bbb286	0.09073511155629363
42	0xbf6d10d8398ef44e	-0.003548071207176074
43	0x3fb1b190b33f87bc	0.06911568046737576
44	0x3fb171cb7755c9d6	0.06814262069182261
45	0x3f75b2902c681daa	0.005297244241325863
46	0xbfb9917a1b017af1	-0.09987605246849875
47	0x3fb5239f1438471c	0.082574789463504
48	0x3fec1a479879d770	0.8782079675718091
49	0x401333d6c79a0aec	4.8006240070123845
50	0xc0048b1030428fac	-2.56790197089318
51	0x3fe3016958e4cf62	0.593922303791697
52	0xc001ab447784243b	-2.208626683921947
53	0xbfe540114a87aa0d	-0.6640707450545179
54	0xbff498b6c4632e55	-1.2872836753257577
55	0xbff2bf9c7c97d854	-1.1717800967139924
56	0x400541678561f878	2.6569357319377183
57	0xbfc7a90da261289c	-0.18484659603774822
58	0xbff6b935b2c80ae7	-1.4202172263764454
59	0x3fe266b3da6ea1ba	0.5750369325879128
60	0x3fcc65c60388d5a9	0.22185588047584062
61	0x3fdaad8ebd5e2fea	0.41684311383209993
62	0x3fc626589d4ff381	0.17304523164048294
63	0xbf84c7a9330f5ca7	-0.01014644801209237
64	0xbfd6eb4eaa4c12e7	-0.3581120169695126
65	0xbfc2dc7a294a6f5c	-0.14735342994833445
66	0xbfc2d8954a1241e5	-0.14723459355128835
67	0xbfcd532ed9d12461	-0.22910104404062095
68	0x3fbe5b181c711e2b	0.11857748693830021
69	0xbfb0816c4c8b3bf2	-0.06447483891245989
70	0x3fc5ceaeb3acea59	0.17036994717803358
71	0xbfc2776a823e133a	-0.1442692886304487
72	0xbfb41cddbb3c6b37	-0.07856546231452631
73	0x3fdfb67b23ca2e76	0.4955127572545516
74	0xbfe6646666a6b766	-0.6997558598429634
75	0x3fc67c4b67323213	0.17566816843863417
76	0xbfd29f097f5e4f7d	-0.2909568542320285
77	0xbfb08054c72b2ba7	-0.06445817816272258
78	0xbfc7fe8e8b423123	-0.18745595741018758
79	0xbfc8c17bf196d688	-0.19340466781948273
80	0x3fe6886e4536a1a3	0.7041541435074133
81	0x3fb72164035c6957	0.09035325128607972
82	0xbf86d675740e76aa	-0.011151235203040361
83	0x3faec02ba557b36a	0.060059894498272495
84	0xbfd18017561c3a07	-0.2734430638237488
85	0xbff09020e1ba4d1c	-1.0351876084794815
86	0x3ff5f3fa93815dfe	1.3720651399543153
87	0xbfbc5b5d130d765f	-0.11076909747267781
88	0x3fc311fb1f1b2249	0.14898623484465848
89	0x3fab870dc4f9f9d7	0.05376475362298876
90	0x3fd95dcba91fecb1	0.39634982601246366
91	0x3fbdc04357f25d4f	0.11621495148789517
92	0xbff107822ae8c73c	-1.0643331218856948
93	0xbf88dba1c80aa23e	-0.012137664716037052
94	0x3fe8a3ba751420d6	0.7699863707248606
95	0xbfd722c35b019a44	-0.3614967716916093
96	0x3ff3f5704b8839bd	1.2474215460275524
97	0xbfde853d7dff801c	-0.47688233665940216
98	0xc00b0825a781cb73	-3.3789780699238974
99	0xbfd5a8d999ec3765	-0.33843078643336916
100	0xbfc97a88b6b3803e	-0.19905194207149352
101	0x3ff0a4645ba1d58e	1.0401347712880553
102	0xbfe3eea2f34e11df	-0.6228804351854328
103	0xbfe9912ef0eb1ae8	-0.7989725785672279
104	0x40000b1781ebac55	2.0054159307524437
105	0xbfd24fa1ad988bd5	-0.28611032440875067
106	0x3ff79937eecbdd83	1.4749068572981237
107	0x3fd556df86f2d86e	0.33342731646133117
108	0xbf9b0e763a6bd5ec	-0.02642235499930294
109	0xbfbf25ca141327ac	-0.12167037000759134
110	0x3fcb3a7d38e4ac6d	0.21272244718543068
111	0xbf9604c711bc50c4	-0.021502600152488296
112	0x3f13a3ed5480ba37	7.49219517508303e-05
113	0x3f73771e9dd83090	0.00475227317430095
114	0x3fa9a10183e5f0e3	0.05005650267682584
115	0xbf80b6d81f627f05	-0.008161247689997273
116	0xbfc32849e40952b7	-0.14966701159086934
117	0xbf61762ddd1dd8b1	-0.002131547525034604
118	0x3fc09bde0e552baf	0.12975669574583779
119	0xbfb15bd893943676	-0.0678077087688623
120	0xbffbcfe746d2032c	-1.7382576719684932
121	0xbfadfe410fd74308	-0.05858043020601228
122	0x3ffcce0328140722	1.800295979076005
123	0x3fbb4c28e3d5c0c0	0.10663085520150428
124	0x3ff01d8587998bfb	1.0072074219576723
125	0x3fe465ee58435828	0.6374427532089202
126	0x3ff3376f3859f3ef	1.2010338021493643
127	0x3fdb97039b730149	0.4310921686228722
128	0xc006aff5e284fb5a	-2.835918206866535
129	0x3fdb8ed638219711	0.430593066039692
130	0xbff6135465f79235	-1.3797191603745322
131	0x3fd97bc5c3510dfb	0.39817947458161
132	0x3fbe0cb8b7101ae9	0.11738161534604398
133	0xbfe263a9ae3bb06b	-0.5746658709517879
134	0x3fd484fc15fa50a0	0.3206167425753481
135	0xbfc1d6aeb04b5f6d	-0.13936408622862065
136	0x3fcd9159dca7f9c8	0.23099826120592426
137	0x3fbc949b38b4f278	0.1116425527042767
138	0x3fbb4d7bf047e77a	0.10665106407387084
139	0x3fc61cd9e742b4d4	0.17275546829242805
140	0xbfdb5ae7eee624b2	-0.4274234612463018
141	0xbfb5acd746c14389	-0.08466859319129418
142	0x3fc5e07286967e7f	0.1709120900313685
143	0xbf73cecb1e0cb520	-0.004835885455390071
144	0xbfd7f0f082fca1fd	-0.3740807799499917
145	0xbfefdecc634e7e98	-0.9959470691282659
146	0xbfdae362f3cbe48a	-0.420128572542645
147	0xbfcb5482b53df183	-0.213516558167509
148	0x3fec59707638b550	0.8859178837789532
149	0x3fea13237087d406	0.8148362348425742
150	0x3fda934091e4a111	0.4152375626313339
151	0x3fbab471465f7a36	0.10431583374109085
152	0xbfe14076e0303593	-0.53911918436795
153	0x3fc60fe2976df35a	0.17235977548616682
154	0x3f7766e224ed0160	0.005713351608222034
155	0x3fc27c13a6394f4b	0.14441152206802096
156	0xbfdb236e7f7b3b14	-0.4240375752387291
157	0xc001997e07223b63	-2.1999474103280803
158	0x3ff7f548497a4659	1.4973833914013055
159	0xbfd05db5d9469bfb	-0.2557196256479412
160	0x3ff12ed20e4ab7c6	1.0739307935977975
161	0x3fd6698d2ccd39fe	0.3501923501507064
162	0x3fe4b7c5cd62e482	0.64743318666946
163	0x3fe21f304e6c69f5	0.5663072139462303
164	0xbffa6caa2a923ceb	-1.651529470724024
165	0x3fa08cc5efe07060	0.03232401421721032
166	0x3fe1e923b1871407	0.559709402784052
167	0xbfc9180b50dabf6b	-0.19604627082798784
168	0xbfeb61356f036c9f	-0.8556162994604114
169	0xbff917bfe1bfe286	-1.568298227152043
170	0x40037f4092d1b9b8	2.4371348829510815
171	0xbfa45d33e6f92815	-0.03977358049867533
172	0x3fd8b12016e20ead	0.38581087336226966
173	0xbf8b1d694010a85b	-0.013239691035853143
174	0x3fea28ba3be6000d	0.8174716157809613
175	0x3fda2ea599a1c0ad	0.40909709933385835
176	0xc000339a8cf9aad3	-2.025197125787011
177	0x3fb3f2738c67f89f	0.07791826417812552
178	0x3fe8bf9ccfa2783c	0.773390203033848
179	0xbfd98444ad89279f	-0.39869801470615046
180	0x3fce75f997185d1c	0.23797531011289486
181	0xbfd545505442119e	-0.33235557773903135
182	0xbfe9328f4c3a742b	-0.7874218453249616
183	0xbfc8b438b66bf106	-0.19299992472941357
184	0x3fdf2445dad4d828	0.48658892030960255
185	0x3fdb5059e59adc88	0.4267792455897923
186	0xbf8f552f5c371a50	-0.015299196244893981
187	0x3fb88c2923933c6b	0.09588868254216869
188	0x3fbfd9f9f1d6f11d	0.12441980509078517
189	0xbf9e636f5747d384	-0.029676189138587286
190	0xbfd001ffcf7795a4	-0.25012202511273984
191	0x3fce3c8c6cc89f0e	0.23622279464438417
192	0x3ff3b2fd780a3903	1.2311987580356465
193	0x3ff5feb7e67964f7	1.374687099733192
194	0xc00e9b3cf8df73d1	-3.825799888915278
195	0x3f872c760ba3476c	0.011315271597058994
196	0x3f85454b5e55e515	0.010386074844734009
197	0x3fdba55057149a9d	0.4319649553675989
198	0xbff02c68f807c762	-1.0108422936140973
199	0xbfbe97606e4b8b93	-0.11949732487441471
200	0x40049658240af8cd	2.5734103027199127
201	0xbfcda76bcf3b5612	-0.23167178744067535
202	0xbff43fcc76515808	-1.2655758497035112
203	0x3fea40eb0c2c399d	0.8204245794056991
204	0x3fe92899dadb380e	0.7862061762368755
205	0x400580854e81fdff	2.6877542622967208
206	0xbfec9d4c9b01f29b	-0.8942015674106928
207	0x3fb805cffa6f2877	0.09383869041553959
208	0xbff67402e4b6ea9e	-1.4033230718766059
209	0xbfd536474ec8a633	-0.3314378995297346
210	0xbfe89b4b1244eba9	-0.7689566952534409
211	0xbff24598d2f63225	-1.141991447514678
212	0x3ff4e9817cd62c99	1.3070082546644584
213	0xbfbc70463f218ba3	-0.11108817139897424
214	0xbfc23b7799248e59	-0.14243979432750356
215	0xbfb4d495ba309bec	-0.08136878772403094
216	0xbfdfb2ea2ad3618b	-0.4952950876445576
217	0x400c1f655d70dcab	3.5153300571506256
218	0x3feef2bfdfac50d2	0.9671325081458468
219	0x3fe07a54ec1a5a08	0.514933072222278
220	0xbfe03c2e398b5250	-0.5073462604437484
221	0xbff041e4a43c162c	-1.0160871901911248
222	0x3fcacc5662865a08	0.20936088381559181
223	0xbf94b0e137d91884	-0.020205992730801828
224	0xbfdbf6522ab67c7d	-0.4369092385404157
225	0xbfcd4fd5bd48ff10	-0.22899886839331218
226	0xc007e6f80c9e55e6	-2.9877778039760754
227	0x3fdf18653384fdd4	0.4858639720077609
228	0x3fe2a88e76a07866	0.5830757443361676
229	0x400c923c9f43963a	3.571404690027319
230	0x3ffcd5f58e5c54a1	1.8022361336673287
231	0x3fcb9769d6e58bfc	0.21555827134133654
232	0xbffc73536285da5a	-1.7781556938695275
233	0xbff7a7c8dfdcdb37	-1.4784630531919
234	0xbfe1f1a22d519919	-0.5607462773448645
235	0xbfe5a2a441c76f4c	-0.6761037144419588
236	0xbfa404de4ef924b9	-0.039099642887387494
237	0xbfce731afc210933	-0.23788773833263974
238	0xbff1dfd3bb1d9a73	-1.1171452817158325
239	0xbfd2381727558b5e	-0.28467348901010847
240	0x3ff2ce6f5f58ee6a	1.1753991817958203
241	0x40103caa4edccaee	4.059243423677556
242	0xc005f5eaa3c2c39a	-2.745076445943096
243	0x3fc25aef3cf18059	0.1434001014304183
244	0xbff882a906a1dae7	-1.531899476916516
245	0xbfba0bca7f06bbb8	-0.10174241639354775
246	0xbff223bc0f7e7cce	-1.1337242703664745
247	0xbff449d1eb54bfbf	-1.2680224602336094
248	0x4002b4d262318004	2.3382918998104305
249	0xbfc7b089bbc50d3d	-0.18507501285976416
250	0xbff4262e497c9112	-1.2593214865274303
251	0x3fe045da5625e5ce	0.508526962526213
252	0xbfdfe3a7e3c33c05	-0.4982700084919432
253	0xbfefbd7cf2d40bf6	-0.9918808691730863
254	0x3ff34c47f25c4907	1.2061233012396444
255	0x3f84640452001281	0.009956392052125953
